data.pth (torch, 5015 bytes, 6 tensors)

l1.weight f4 [8, 54]
0	0xbe95d4d0	-0.29263926
1	0xbeab27db	-0.33428845
2	0xbeb2b4b9	-0.34903505
3	0xbde9ff88	-0.11425692
4	0x3d89510a	0.0670491
5	0x3f255e6e	0.64597213
6	0xbe30c42b	-0.17262332
7	0xbe90fd6b	-0.28318343
8	0xbe9dd578	-0.30826926
9	0xbe703b39	-0.23460092
10	0xbd0de8d3	-0.034645867
11	0x3f421c76	0.7582468
12	0x3e0d3f92	0.13793781
13	0x3f2818c1	0.6566277
14	0xbe5766b1	-0.21035267
15	0x3f209887	0.6273274
16	0xbdb34c9e	-0.08754848
17	0x3f4b9f0b	0.79539555
18	0x3e44c6d5	0.19216473
19	0xbc5aae7e	-0.013347266
20	0xbdfe5cba	-0.1242003
21	0x3d6f9741	0.058493856
22	0xbdb33373	-0.087500475
23	0x3f2802f0	0.6562948
24	0x3eaaba8c	0.3334545
25	0xbe1b3099	-0.15155257
26	0x3f08c7ad	0.5342968
27	0xbe797864	-0.24362332
28	0x3e763eae	0.24047348
29	0xbe31e2d9	-0.17371692
30	0x3f343b94	0.7040341
31	0x3f3d2996	0.7389158
32	0x3dad9d1e	0.08477233
33	0xbe570814	-0.20999175
34	0xbe686736	-0.22695622
35	0x3f0a2413	0.53961295
36	0x3e919aba	0.2843836
37	0xbebeb0b0	-0.37244177
38	0xbe39b2f7	-0.18134676
39	0xbe74fd5f	-0.23924778
40	0x3f102f3a	0.5632206
41	0x3ee85f79	0.4538534
42	0x3f09fa3a	0.5389744
43	0xbe11dcc0	-0.14244366
44	0x3eb8b4d0	0.3607545
45	0xbdb63622	-0.08897044
46	0xbf19240f	-0.59820646
47	0xbe789d81	-0.24278833
48	0x3e70435f	0.234632
49	0x3f19f967	0.6014618
50	0x3f120634	0.57040715
51	0x3eb7c065	0.35888973
52	0xbea71832	-0.32635647
53	0xbd61508e	-0.055008464
54	0xbd6ad8ea	-0.05733577
55	0xbe6e0b86	-0.23246583
56	0x3eb63dc8	0.3559401
57	0x3eb44052	0.35205323
58	0x3f2bc1b0	0.6709242
59	0xbf0bca6c	-0.54605746
60	0x3ea5676d	0.3230547
61	0x3e84cd4e	0.25937885
62	0x3e8becd6	0.2732913
63	0x3eb3f3f0	0.35147047
64	0x3ef83f2f	0.48485705
65	0xbe84ac6c	-0.25912797
66	0x3e997963	0.29975423
67	0xbeb69570	-0.35660887
68	0x3d88e338	0.066839635
69	0xbea27a99	-0.3173416
70	0x3e8aa13f	0.27076146
71	0xbf1273e7	-0.572081
72	0x3ee408cc	0.4453796
73	0x3f0a8d16	0.5412153
74	0xbe81c962	-0.25348955
75	0x3f3beb6e	0.7340611
76	0x3f0f4729	0.55967957
77	0x3dc01de8	0.09380704
78	0x3dc1bf9a	0.09460373
79	0x3e32ece3	0.17473178
80	0x3f02ef3a	0.5114628
81	0x3cd1063e	0.025515672
82	0x3ea06f22	0.31334788
83	0xbe61168e	-0.2198126
84	0xbee88d5f	-0.45420358
85	0xbe5de2b3	-0.2166851
86	0x3c368923	0.011141094
87	0x3ea68246	0.32521266
88	0x3df8e350	0.121527314
89	0xbe026919	-0.12735404
90	0x3e94a353	0.29030856
91	0x3ec1fc6f	0.37887904
92	0x3e85ba16	0.26118535
93	0x3e9ddb51	0.30831388
94	0xbed2ffc4	-0.4121076
95	0x3edc1062	0.4298125
96	0xbe33ad6e	-0.17546627
97	0x3d2e09bb	0.04248975
98	0xbcf56c9c	-0.029959016
99	0x3e456f0d	0.19280644
100	0xbedd37e6	-0.4320671
101	0xbe35b3f1	-0.17744423
102	0x3eaefb4d	0.34176102
103	0x3f22905d	0.6350153
104	0xbea5cc6e	-0.3238253
105	0x3ecf43be	0.4048137
106	0x3e870832	0.2637344
107	0x3efe69fa	0.4969023
108	0xbe0945ef	-0.13405584
109	0x3f102b3e	0.5631598
110	0xbea6ce55	-0.32579294
111	0xbdf86abc	-0.12129733
112	0xbe82ebcf	-0.25570533
113	0x3f2a9b4a	0.666432
114	0x3cba421b	0.0227366
115	0xbda8874f	-0.08228933
116	0xbe1b6789	-0.15176214
117	0xbe86fb06	-0.2636339
118	0xbe5530af	-0.20819353
119	0xbe2d0130	-0.16894984
120	0xbd9bf9f2	-0.07616033
121	0xbd864005	-0.065551795
122	0x3f06feeb	0.52732724
123	0xbcbd2a0a	-0.023091335
124	0xbe7511b8	-0.2393254
125	0x3f13f4d8	0.57795477
126	0xbe68a650	-0.22719693
127	0xbee4fde9	-0.44724968
128	0x3dc13550	0.09433997
129	0xbee4ffb5	-0.4472634
130	0xbee52e7a	-0.4476202
131	0xbebe61be	-0.37183946
132	0xbdc69898	-0.09697074
133	0xbe76a307	-0.24085627
134	0xbe8ba8ed	-0.27277318
135	0x3f22395d	0.6336878
136	0xbe12ec40	-0.14347935
137	0x3f1bca40	0.60855484
138	0x3eed96e2	0.46404177
139	0xbd716dde	-0.05894267
140	0xbe5dcfbe	-0.21661279
141	0xbe66e8d2	-0.22549751
142	0x3f053480	0.52033234
143	0x3ca2db0c	0.01987984
144	0xbc420ebb	-0.011844332
145	0xbe5e6a6a	-0.21720281
146	0xbe42d1d7	-0.1902536
147	0x3ce92f30	0.028464884
148	0x3ecec789	0.40386608
149	0xbea3e522	-0.32010752
150	0xbdb3bbce	-0.08776055
151	0x3f0ba98b	0.5455558
152	0xbe523033	-0.20526199
153	0x3f111a7c	0.56681037
154	0x3e82b22f	0.25526568
155	0xbda61537	-0.08109515
156	0xbdae4210	-0.08508694
157	0xbe6cc13d	-0.2312059
158	0x3c87e139	0.016586887
159	0xbd5295a1	-0.05141223
160	0xbe58a6ce	-0.21157381
161	0x3e389936	0.18027195
162	0x3eef7dd1	0.46775678
163	0x3f06f85c	0.52722716
164	0x3eda743b	0.42666802
165	0xbd9ea903	-0.0774708
166	0xbe6cbfb7	-0.23120008
167	0xbebc5f7a	-0.36791593
168	0x3e31fb12	0.17380932
169	0x3e933f1f	0.28759095
170	0x3ec7e9ae	0.3904547
171	0x3ec3df91	0.38256505
172	0xbe5fb3f1	-0.21845986
173	0xbb80b454	-0.003927747
174	0x3d6682d4	0.05627711
175	0x3e0b35f9	0.13594808
176	0x3ef1fd0f	0.4726338
177	0xbd890fdd	-0.06692479
178	0xbe4b6e7a	-0.19866362
179	0xbe55dbe3	-0.20884661
180	0xbe81d5c3	-0.253584
181	0xbecf7f23	-0.40526685
182	0x3eac31c2	0.33631712
183	0xbeb77b1a	-0.35836107
184	0xbed34806	-0.41265887
185	0xbeb30858	-0.34967303
186	0x3b7bd231	0.0038424844
187	0xbdfd96e8	-0.12382299
188	0xbde82d9f	-0.113368265
189	0x3f0b22cd	0.54349977
190	0x3c9d18e8	0.019176915
191	0x3e747cfb	0.23875801
192	0xbea739d7	-0.32661316
193	0x3d4e5442	0.050373323
194	0x3e617a89	0.220194
195	0x3ea1d549	0.31608036
196	0x3f0053ff	0.5012817
197	0xbd725638	-0.059164256
198	0x3c9468e0	0.018116415
199	0x3f085d5d	0.5326746
200	0x3ead207d	0.3381385
201	0x3e9be755	0.3044993
202	0xbe47326d	-0.1945283
203	0xbe87488f	-0.26422545
204	0x3d9a233b	0.07526251
205	0x3e9ca390	0.30593538
206	0x3dad8aac	0.08473715
207	0x3ee23b70	0.44185972
208	0x3f17c5c0	0.5928612
209	0x3ec389e6	0.38191146
210	0xbe5cc111	-0.21558024
211	0xbe2d34a5	-0.16914614
212	0x3ba55ab3	0.0050462126
213	0x3c3f3c34	0.011672068
214	0x3e19752e	0.14986107
215	0x3e6a6647	0.22890578
216	0x3f0b8bae	0.5451001
217	0xbc29dd63	-0.010367724
218	0xbeb649e1	-0.3560324
219	0xbe81fa26	-0.2538616
220	0xbe28a38b	-0.16468637
221	0xbf0a271a	-0.53965914
222	0xbe6751e2	-0.2258983
223	0xbec03717	-0.3754203
224	0xbe3bfcf0	-0.18358207
225	0xbe7df2c5	-0.2479964
226	0xbe306964	-0.17227703
227	0x3edc10aa	0.42981464
228	0x3ed6f8dd	0.41986743
229	0x3f113414	0.5672009
230	0xbdcf54fc	-0.10123631
231	0x3e968389	0.29397228
232	0xbe5e81ea	-0.21729246
233	0xbf0a2a1e	-0.53970516
234	0x3ec3fd5d	0.38279238
235	0xbea8ee34	-0.32994235
236	0x3eb1b248	0.3470633
237	0xbebf1201	-0.37318423
238	0xbed80238	-0.42189193
239	0x3da3a2c1	0.07990027
240	0x3e64b41a	0.22334328
241	0xbe88efe5	-0.26745525
242	0x3f07a6ec	0.5298908
243	0xbef3774d	-0.47551957
244	0x3eeadf54	0.4587351
245	0xbf19766e	-0.59946334
246	0xbec1f4e8	-0.3788216
247	0x3f2066fa	0.6265713
248	0x3e9ed389	0.31020764
249	0xbe452943	-0.19254021
250	0xbd4d333f	-0.0500977
251	0x3ea80127	0.3281338
252	0x3e8ae26d	0.27125874
253	0xbd8ab529	-0.06772835
254	0xbd442fec	-0.047897264
255	0xbbd8654a	-0.0066038715

l1.bias f4 [8]
0	0x3f2b2fee	0.6687001
1	0x3f2fd477	0.6868357
2	0x3ee50121	0.44727424
3	0x3ed58a46	0.41707057
4	0x3f0a2fb8	0.53979063
5	0x3f8233e4	1.0172086
6	0x3eff8717	0.49907753
7	0x3f440529	0.76570374

l2.weight f4 [8, 8]
0	0xbf83ea95	-1.0305964
1	0x3db17706	0.0866528
2	0xbcc0e4b0	-0.023546547
3	0x3f89ba43	1.0759968
4	0x3f36ded3	0.7143375
5	0xbdc3fe72	-0.09570016
6	0x3efc3aa8	0.492635
7	0x3e6e5b45	0.23277004
8	0x3e2e485b	0.17019789
9	0x3f8a94f6	1.0826709
10	0xbf0fbb5b	-0.56145257
11	0x3ea92209	0.3303378
12	0x3ea7e61c	0.32792747
13	0xbf80afc7	-1.0053643
14	0x3ec31c41	0.38107494
15	0x3df1863a	0.1179318
16	0xbf70ecb7	-0.941112
17	0x3f3547a7	0.7081246
18	0x3eb4da70	0.35322905
19	0x3f4c733e	0.79863346
20	0x3e2d578a	0.16927925
21	0x3fab4a69	1.3382083
22	0xbe043b02	-0.12913135
23	0xbe6d4163	-0.23169474
24	0x3e20aafa	0.15690222
25	0x3e4edb41	0.20200826
26	0x3f82d91b	1.0222505
27	0x3e40f4d0	0.18843389
28	0xbf882d96	-1.0638912
29	0x3ea40c33	0.32040557
30	0x3fb18455	1.386851
31	0x3fa6af1e	1.3022192
32	0x3f54ecbc	0.8317373
33	0x3e35efec	0.17767304
34	0xbf0ef5e1	-0.5584393
35	0xbf445bd5	-0.76702625
36	0xbf30b7ac	-0.6903026
37	0x3f5858e7	0.84510654
38	0xbe17cefa	-0.14825049
39	0x3f511a26	0.81680524
40	0xbe55d2b1	-0.20881154
41	0x3fd53bcd	1.6658875
42	0xbf9c2f9d	-1.220203
43	0xbf029972	-0.5101539
44	0xbe4daebf	-0.20086192
45	0x3ed70cc3	0.42001924
46	0xbb618ce8	-0.0034416262
47	0x3ed90827	0.42389032
48	0x3fb6d7b4	1.4284577
49	0x3e975fe5	0.2956535
50	0x3dfd49e3	0.123676084
51	0x3e9e7569	0.30948952
52	0x3fb3faa3	1.4060863
53	0x3f3c40ad	0.7353619
54	0xbf5f3fb2	-0.87206566
55	0xbc055663	-0.008138272
56	0xbe83a85f	-0.25714394
57	0x3e243ec6	0.16039571
58	0x3bb8dd40	0.0056416094
59	0xbe9a5215	-0.3014075
60	0xbe81bdf8	-0.25340247
61	0xbe7c81b0	-0.24658847
62	0xbdd4dd4c	-0.103937715
63	0x3e6dc942	0.23221305

l2.bias f4 [8]
0	0x3eac2649	0.3362296
1	0x3dbba462	0.09162213
2	0x3efbecbe	0.49204057
3	0x3f272e8a	0.6530539
4	0x3f0c26ed	0.54746896
5	0x3f042436	0.51617754
6	0x3f322f73	0.6960365
7	0xbea1b765	-0.3158523

l3.weight f4 [7, 8]
0	0xbf582a12	-0.84439194
1	0xbf6e309f	-0.9304294
2	0xbf704cc3	-0.9386713
3	0xbf8c2602	-1.0949099
4	0x3eccf352	0.4002939
5	0xbf7d14e7	-0.9886002
6	0x3f31f0b0	0.69507885
7	0x3c4cd740	0.0125024915
8	0x3e9a34f2	0.3011852
9	0xbf4689b2	-0.77553856
10	0x3eecb55e	0.46232122
11	0x3f1e545c	0.6184747
12	0xbf641a10	-0.8910227
13	0xbf8e7ae3	-1.1131252
14	0xbf92b351	-1.1460973
15	0xbe5646bc	-0.2092542
16	0xbf4270f2	-0.7595359
17	0xbfbf8bce	-1.496454
18	0xbf9aacd2	-1.208399
19	0x3f569427	0.8381981
20	0x3f080838	0.5313754
21	0xbf1c0465	-0.60944206
22	0xbe363ba0	-0.17796183
23	0x3e7763f2	0.2415922
24	0xbf8fb61c	-1.122745
25	0xbf94b655	-1.1618143
26	0x3e669f25	0.22521646
27	0xbe52048f	-0.20509551
28	0x3f29092a	0.6602961
29	0x3f80ee52	1.007273
30	0xbe93d26d	-0.2887148
31	0xbe542863	-0.20718531
32	0xbf09d577	-0.53841347
33	0x3f1d8243	0.6152689
34	0xbf3fb22f	-0.7488126
35	0xbf9a51e8	-1.2056246
36	0xbe64d92f	-0.22348474
37	0x3f1d185a	0.6136528
38	0x3e38c5d4	0.18044215
39	0x3e73f812	0.238251
40	0x3f399473	0.7249214
41	0x3f2cf5bd	0.67562467
42	0xbf266b6f	-0.6500768
43	0x3e4b3908	0.19845974
44	0xbed1654b	-0.40897593
45	0x3f298d99	0.66231686
46	0xbfa1221b	-1.2588533
47	0xbdf9df7c	-0.122008294
48	0x3f407fbb	0.751949
49	0xbf82aca9	-1.0208942
50	0x3f22de4a	0.63620436
51	0xbf374212	-0.7158519
52	0xbf80907c	-1.0044093
53	0xbf4b0c11	-0.79315287
54	0x3e8ae8d3	0.27130756
55	0x3e6fe036	0.23425373

l3.bias f4 [7]
0	0x3e90bdc2	0.28269774
1	0xbe9fd31a	-0.31215745
2	0x3da93d7b	0.082636796
3	0x3dff1202	0.124546066
4	0x3df27702	0.11839105
5	0x3de96192	0.11395563
6	0x3de20348	0.11035782
